intermediate_res/b2j.npy (npy, 387344 bytes, 1 tensors)

array f8 [5378, 3, 3]
000000 f0 52 ca eb bd 4f e3 bf 33 49 f8 dc 45 e0 ba 3f
       -0.6034841161041111 0.10498463291904585
000010 59 35 64 3c 3b 4b e9 bf dd 14 50 a7 ce da b4 bf
       -0.7904335193176549 -0.08146373352799992
000020 40 76 8e 8b b1 4b ef 3f 6a c2 72 c8 78 96 c8 3f
       0.9779899335587245 0.19209203517449974
000030 e3 59 ba b4 ea 61 e9 3f 76 80 04 90 99 14 c7 3f
       0.7932027368395292 0.18031615764721537
000040 16 2d 7e 42 de 9c e2 bf 44 80 f3 94 be 4f e3 bf
       -0.581648950451753 -0.6034844311907439
000050 8d 3a 50 bc 45 e0 ba 3f b8 23 c8 bb 3a 4b e9 bf
       0.1049846253156181 -0.7904332797635254
000060 7f e7 6c 1b cd da b4 bf f2 e1 73 8e b1 4b ef 3f
       -0.0814636413532792 0.97798993895327
000070 01 b4 69 e1 78 96 c8 3f a8 fc 1b 39 ea 61 e9 3f
       0.19209204679955863 0.7932025065819248
000080 17 18 b1 5a 99 14 c7 3f 9e c1 34 ef de 9c e2 bf
       0.18031613281544942 -0.5816492721551645
000090 3c aa 1c 3e bf 4f e3 bf bf 2e a8 9b 45 e0 ba 3f
       -0.6034847462772812 0.10498461771220045
0000a0 a8 0d 2c 3b 3a 4b e9 bf cd b8 89 8f cb da b4 bf
       -0.7904330402092699 -0.08146354917855377
0000b0 9c 4d 59 91 b1 4b ef 3f 63 a0 60 fa 78 96 c8 3f
       0.9779899443478146 0.19209205842458052
0000c0 e6 9a 7d bd e9 61 e9 3f 43 af 5d 25 99 14 c7 3f
       0.7932022763241917 0.18031610798368022
0000d0 e6 52 eb 9b df 9c e2 bf d1 d0 45 e7 bf 4f e3 bf
       -0.5816495938584836 -0.6034850613637223
0000e0 c1 25 00 7b 45 e0 ba 3f 22 f3 8f ba 39 4b e9 bf
       0.1049846101087928 -0.7904328006548875
0000f0 c5 88 a6 03 ca da b4 bf 37 b9 3e 94 b1 4b ef 3f
       -0.08146345700382358 0.9779899497423575
000100 8b 87 57 13 79 96 c8 3f 94 34 df 41 e9 61 e9 3f
       0.19209207004956527 0.7932020460663289
000110 f5 45 0a f0 98 14 c7 3f e7 e0 a1 48 e0 9c e2 bf
       0.18031608315190764 -0.5816499155617095
000120 0c f4 6e 90 c0 4f e3 bf 99 1f 58 5a 45 e0 ba 3f
       -0.6034853764500681 0.10498460250539522
000130 2b d4 f3 39 39 4b e9 bf 67 57 c3 77 c8 da b4 bf
       -0.790432561100379 -0.08146336482908866
000140 ce 24 24 97 b1 4b ef 3f 81 69 4e 2c 79 96 c8 3f
       0.9779899551369 0.1920920816745131
000150 b7 c9 40 c6 e8 61 e9 3f 31 dc b6 ba 98 14 c7 3f
       0.793201815808337 0.18031605832013178
000160 aa 6b 58 f5 e0 9c e2 bf e4 13 98 39 c1 4f e3 bf
       -0.5816502372648433 -0.6034856915363176
000170 43 1c b0 39 45 e0 ba 3f bf b0 57 b9 38 4b e9 bf
       0.10498459490200766 -0.7904323215457437
000180 b1 24 e0 eb c6 da b4 bf 54 90 09 9a b1 4b ef 3f
       -0.08146327265434895 0.9779899605314406
000190 3a 46 45 45 79 96 c8 3f 4b 5a a2 4a e8 61 e9 3f
       0.19209209329942373 0.7932015855502156
0001a0 f2 71 63 85 98 14 c7 3f 24 f3 0e a2 e1 9c e2 bf
       0.1803160334883525 -0.5816505589678838
0001b0 5d 30 c1 e2 c1 4f e3 bf c1 1b 08 19 45 e0 ba 3f
       -0.6034860066224713 0.10498458729863015
0001c0 e3 88 bb 38 38 4b e9 bf a7 f0 fc 5f c5 da b4 bf
       -0.7904320819909824 -0.08146318047960453
0001d0 d3 fb ee 9c b1 4b ef 3f c0 1d 3c 5e 79 96 c8 3f
       0.9779899659259804 0.1920921049242974
0001e0 55 e6 03 cf e7 61 e9 3f 3c 07 10 50 98 14 c7 3f
       0.7932013552919651 0.18031600865656994
0001f0 5b 77 c5 4e e2 9c e2 bf 74 49 ea 8b c2 4f e3 bf
       -0.5816508806708315 -0.6034863217085289
000200 13 1e 60 f8 44 e0 ba 3f 91 5c 1f b8 37 4b e9 bf
       0.10498457969526269 -0.7904318424360942
000210 47 bb 19 d4 c3 da b4 bf 44 67 d4 9f b1 4b ef 3f
       -0.08146308830485537 0.9779899713205187
000220 0d f0 32 77 79 96 c8 3f cf 6d 65 53 e7 61 e9 3f
       0.19209211654913397 0.793201125033585
000230 0d 9c bc 1a 98 14 c7 3f 4e f8 7b fb e2 9c e2 bf
       0.180315983824784 -0.5816512023736864
000240 2f 5f 13 35 c3 4f e3 bf 38 23 b8 d7 44 e0 ba 3f
       -0.603486636794491 0.10498457209190526
000250 cf 2b 83 37 37 4b e9 bf 90 84 36 48 c2 da b4 bf
       -0.7904316028810799 -0.08146299613010144
000260 ad d2 b9 a2 b1 4b ef 3f 24 bd 29 90 79 96 c8 3f
       0.977989976715056 0.1920921281739335
000270 bf f0 c6 d7 e6 61 e9 3f 66 30 69 e5 97 14 c7 3f
       0.7932008947750758 0.18031595899299474
000280 fd 75 32 a8 e3 9c e2 bf 8a 71 3c de c3 4f e3 bf
       -0.5816515240764485 -0.6034869518803572
000290 35 2b 10 b7 44 e0 ba 3f 9b f6 e6 b6 36 4b e9 bf
       0.10498456448855793 -0.7904313633259393
0002a0 87 4c 53 bc c0 da b4 bf 0c 3e 9f a5 b1 4b ef 3f
       -0.08146290395534282 0.9779899821095923
0002b0 05 85 20 a9 79 96 c8 3f 23 6f 28 5c e6 61 e9 3f
       0.19209213979869602 0.7932006645164374
0002c0 49 c4 15 b0 97 14 c7 3f 6a f0 e8 54 e4 9c e2 bf
       0.1803159341612022 -0.581651845779118
0002d0 86 80 65 87 c4 4f e3 bf 04 36 68 96 44 e0 ba 3f
       -0.6034872669661275 0.10498455688522063
0002e0 f5 bc 4a 36 36 4b e9 bf 26 13 70 30 bf da b4 bf
       -0.7904311237706724 -0.08146281178057943
0002f0 60 a9 84 a8 b1 4b ef 3f af 47 17 c2 79 96 c8 3f
       0.9779899875041274 0.19209215142342148
000300 fb e8 89 e0 e5 61 e9 3f b3 57 c2 7a 97 14 c7 3f
       0.7932004342576698 0.1803159093294063
000310 92 67 9f 01 e5 9c e2 bf 22 8c 8e 30 c5 4f e3 bf
       -0.5816521674816946 -0.603487582051802
000320 a7 43 c0 75 44 e0 ba 3f dc 7e ae b5 35 4b e9 bf
       0.10498454928189337 -0.790430884215279
000330 71 d8 8c a4 bd da b4 bf ac 14 6a ab b1 4b ef 3f
       -0.08146271960581132 0.9779899928986615
000340 23 05 0e db 79 96 c8 3f 46 5e eb 64 e5 61 e9 3f
       0.19209216304810992 0.7932002039987729
000350 a5 ea 6e 45 97 14 c7 3f 78 db 55 ae e5 9c e2 bf
       0.18031588449760708 -0.5816524891841786
000360 5e 94 b7 d9 c5 4f e3 bf 1e 54 18 55 44 e0 ba 3f
       -0.6034878971373805 0.10498454167857615
000370 4f 3c 12 35 35 4b e9 bf 64 9c a9 18 bc da b4 bf
       -0.790430644659759 -0.08146262743103844
000380 e8 7f 4f ae b1 4b ef 3f 5f bd 04 f4 79 96 c8 3f
       0.9779899982931939 0.19209217467276127
000390 03 cf 4c e9 e4 61 e9 3f 1f 7d 1b 10 97 14 c7 3f
       0.7931999737397465 0.18031585966580452
0003a0 1a 4c 0c 5b e6 9c e2 bf 3a 99 e0 82 c6 4f e3 bf
       -0.5816528108865697 -0.6034882122228631
0003b0 67 67 70 34 44 e0 ba 3f 4e f5 75 b4 34 4b e9 bf
       0.10498453407526896 -0.7904304051041124
0003c0 01 5f c6 8c ba da b4 bf 1c eb 34 b1 b1 4b ef 3f
       -0.0814625352562608 0.9779900036877254
0003d0 64 70 fb 0c 7a 96 c8 3f 34 3b ae 6d e4 61 e9 3f
       0.19209218629737557 0.7931997434805909
0003e0 20 0f c8 da 96 14 c7 3f 76 b9 c2 07 e7 9c e2 bf
       0.1803158348339986 -0.5816531325888679
0003f0 b8 9a 09 2c c7 4f e3 bf 87 7d c8 13 44 e0 ba 3f
       -0.60348852730825 0.10498452647197186
000400 de a9 d9 33 34 4b e9 bf 4b 20 e3 00 b9 da b4 bf
       -0.7904301655483399 -0.08146244308147847
000410 46 56 1a b4 b1 4b ef 3f 33 1e f2 25 7a 96 c8 3f
       0.9779900090822558 0.19209219792195284
000420 da a2 0f f2 e3 61 e9 3f ab a0 74 a5 96 14 c7 3f
       0.7931995132213061 0.1803158100021894
000430 90 23 79 b4 e7 9c e2 bf d5 98 32 d5 c7 4f e3 bf
       -0.5816534542910734 -0.6034888423935408
000440 78 96 20 f3 43 e0 ba 3f f8 59 3d b3 33 4b e9 bf
       0.10498451886868476 -0.7904299259924406
000450 3c e0 ff 74 b7 da b4 bf 65 c1 ff b6 b1 4b ef 3f
       -0.08146235090669135 0.9779900144767849
000460 c9 c6 e8 3e 7a 96 c8 3f f2 05 71 76 e3 61 e9 3f
       0.192092209546493 0.7931992829618919
000470 bb 31 21 70 96 14 c7 3f 65 8a 2f 61 e8 9c e2 bf
       0.1803157851703768 -0.581653775993186
000480 94 93 5b 7e c8 4f e3 bf 41 b2 78 d2 43 e0 ba 3f
       -0.603489157478736 0.10498451126540777
000490 a3 05 a1 32 33 4b e9 bf db 9e 1c e9 b5 da b4 bf
       -0.7904296864364152 -0.08146225873189954
0004a0 78 2c e5 b9 b1 4b ef 3f 2c 6a df 57 7a 96 c8 3f
       0.9779900198713127 0.19209222117099622
0004b0 7f 64 d2 fa e2 61 e9 3f 56 c2 cd 3a 96 14 c7 3f
       0.7931990527023486 0.18031576033856095
0004c0 f6 ed e5 0d e9 9c e2 bf f0 8a 84 27 c9 4f e3 bf
       -0.5816540976952058 -0.6034894725638349
0004d0 d7 d0 d0 b1 43 e0 ba 3f d5 ac 04 b2 32 4b e9 bf
       0.10498450366214072 -0.7904294468802627
0004e0 1f 5c 39 5d b4 da b4 bf 7e 97 ca bc b1 4b ef 3f
       -0.08146216655710291 0.9779900252658391
0004f0 53 08 d6 70 7a 96 c8 3f 7b be 33 7f e2 61 e9 3f
       0.19209223279546225 0.7931988224426755
000500 73 52 7a 05 96 14 c7 3f 42 4e 9c ba e9 9c e2 bf
       0.1803157355067416 -0.5816544193971327
000510 ef 7e ad d0 c9 4f e3 bf 46 f2 28 91 43 e0 ba 3f
       -0.6034897876488382 0.1049844960588838
000520 99 4f 68 31 32 4b e9 bf 12 18 56 d1 b2 da b4 bf
       -0.7904292073239844 -0.0814620743823016
000530 7d 02 b0 bf b1 4b ef 3f 47 a1 cc 89 7a 96 c8 3f
       0.9779900306603647 0.19209224441989134
000540 ed 13 95 03 e2 61 e9 3f 1d e2 26 d0 95 14 c7 3f
       0.7931985921828734 0.18031571067491906
000550 4d ab 52 67 ea 9c e2 bf 92 6f d6 79 ca 4f e3 bf
       -0.5816547410989671 -0.603490102733746
000560 89 16 81 70 43 e0 ba 3f eb ed cb b0 31 4b e9 bf
       0.10498448845563692 -0.7904289677675796
000570 ad d2 72 45 b1 da b4 bf 72 6d 95 c2 b1 4b ef 3f
       -0.08146198220749552 0.9779900360548892
000580 04 35 c3 a2 7a 96 c8 3f d5 64 f6 87 e1 61 e9 3f
       0.19209225604428337 0.7931983619229422
000590 50 71 d3 9a 95 14 c7 3f 16 05 09 14 eb 9c e2 bf
       0.1803156858430932 -0.5816550628007089
0005a0 d2 5c ff 22 cb 4f e3 bf 9f 3d d9 4f 43 e0 ba 3f
       -0.6034904178185576 0.10498448085240007
0005b0 c9 87 2f 30 31 4b e9 bf f5 8b 8f b9 af da b4 bf
       -0.7904287282110484 -0.08146189003268474
0005c0 5c d8 7a c5 b1 4b ef 3f 8a c3 b9 bb 7a 96 c8 3f
       0.9779900414494125 0.19209226766863835
0005d0 2f b1 57 0c e1 61 e9 3f 08 00 80 65 95 14 c7 3f
       0.7931981316628817 0.18031566101126395
0005e0 98 5b bf c0 eb 9c e2 bf b2 46 28 cc cb 4f e3 bf
       -0.5816553845023575 -0.6034907329032733
0005f0 8a 67 31 2f 43 e0 ba 3f 34 1d 93 af 30 4b e9 bf
       0.10498447324917329 -0.7904284886543906
000600 e6 43 ac 2d ae da b4 bf 3a 43 60 c8 b1 4b ef 3f
       -0.0814617978578692 0.9779900468439344
000610 d9 4c b0 d4 7a 96 c8 3f fc f8 b8 90 e0 61 e9 3f
       0.19209227929295628 0.7931979014026918
000620 4b 8e 2c 30 95 14 c7 3f d6 ae 75 6d ec 9c e2 bf
       0.18031563617943144 -0.5816557062039134
000630 32 2d 51 75 cc 4f e3 bf 46 94 89 0e 43 e0 ba 3f
       -0.603491047987893 0.10498446564595651
000640 2b ae f6 2e 30 4b e9 bf 7e fa c8 a1 ac da b4 bf
       -0.7904282490976063 -0.08146170568304886
000650 0c ae 45 cb b1 4b ef 3f ef d0 a6 ed 7a 96 c8 3f
       0.977990052238455 0.1920922909172371
000660 3b 3c 1a 15 e0 61 e9 3f 11 1c d9 fa 94 14 c7 3f
       0.7931976711423724 0.18031561134759547
000670 ce fe 2b 1a ed 9c e2 bf 52 10 7a 1e cd 4f e3 bf
       -0.5816560279053762 -0.6034913630724168
000680 d7 c3 e1 ed 42 e0 ba 3f b2 3a 5a ae 2f 4b e9 bf
       0.10498445804274979 -0.7904280095406959
000690 c3 af e5 15 ab da b4 bf d4 18 2b ce b1 4b ef 3f
       -0.08146161350822383 0.9779900576329745
0006a0 ce 4f 9d 06 7b 96 c8 3f ee 7a 7b 99 df 61 e9 3f
       0.19209230254148085 0.7931974408819238
0006b0 60 a9 85 c5 94 14 c7 3f 86 4b e2 c6 ed 9c e2 bf
       0.1803155865157562 -0.5816563496067466
0006c0 14 f0 a2 c7 cd 4f e3 bf 3b f6 39 cd 42 e0 ba 3f
       -0.6034916781568449 0.10498445043955311
0006d0 c4 c2 bd 2d 2f 4b e9 bf b1 63 02 8a a9 da b4 bf
       -0.7904277699836588 -0.08146152133339403
0006e0 92 83 10 d1 b1 4b ef 3f 78 c9 93 1f 7b 96 c8 3f
       0.9779900630274929 0.19209231416568762
0006f0 14 b5 dc 1d df 61 e9 3f 38 36 32 90 94 14 c7 3f
       0.7931972106213458 0.1803155616839136
000700 f8 94 98 73 ee 9c e2 bf 78 cc cb 70 ce 4f e3 bf
       -0.581656671308024 -0.6034919932411773
000710 77 2b 92 ac 42 e0 ba 3f 66 46 21 ad 2e 4b e9 bf
       0.10498444283636653 -0.7904275304264956
000720 4d 16 1f fe a7 da b4 bf 48 ee f5 d3 b1 4b ef 3f
       -0.08146142915855954 0.9779900684220104
000730 ec 3d 8a 38 7b 96 c8 3f b0 ea 3d a2 de 61 e9 3f
       0.19209232578985735 0.7931969803606389
000740 9a c2 de 5a 94 14 c7 3f 28 db 4e 20 ef 9c e2 bf
       0.18031553685206775 -0.5816569930092088
000750 7a a5 f4 19 cf 4f e3 bf 85 63 ea 8b 42 e0 ba 3f
       -0.6034923083254136 0.10498443523318997
000760 93 c5 84 2c 2e 4b e9 bf 91 c7 3b 72 a6 da b4 bf
       -0.7904272908692057 -0.08146133698372028
000770 f0 58 db d6 b1 4b ef 3f 29 ad 80 51 7b 96 c8 3f
       0.9779900738165264 0.19209233741399004
000780 bf 1b 9f 26 de 61 e9 3f 83 4e 8b 25 94 14 c7 3f
       0.7931967500998026 0.18031551202021853
000790 12 1e 05 cd ef 9c e2 bf 1e 7b 1d c3 cf 4f e3 bf
       -0.5816573147103006 -0.6034926234095541
0007a0 6a 9e 42 6b 42 e0 ba 3f 52 40 e8 ab 2d 4b e9 bf
       0.1049844276300235 -0.7904270513117899
0007b0 82 77 58 e6 a4 da b4 bf 90 c3 c0 d9 b1 4b ef 3f
       -0.08146124480887632 0.9779900792110414
0007c0 31 17 77 6a 7b 96 c8 3f 44 48 00 ab dd 61 e9 3f
       0.19209234903808572 0.7931965198388373
0007d0 f5 d9 37 f0 93 14 c7 3f bc 5d bb 79 f0 9c e2 bf
       0.180315487188366 -0.5816576364113
0007e0 64 4d 46 6c d0 4f e3 bf 1e dc 9a 4a 42 e0 ba 3f
       -0.603492938493599 0.104984420026867
0007f0 9a b6 4b 2b 2d 4b e9 bf 18 26 75 5a a3 da b4 bf
       -0.7904268117542472 -0.08146115263402753
